…
0GHz x 4, 16GB of DDR3 RAM, and NVIDIA GeForce GTX 960M 4GB DDR5 GPU.\n\nTable 1 shows the architecture of the VGG-like CNN (from Keras[4]) used in the experiments. The last layer, dense_2, used the softmax classifier and ReLU classifier in the experiments.\n\nThe Softmax- and ReLU-based models had the same hyperparameters, and it may be seen on the Jupyter Notebook found in the project repository: https://github.com/AFAgarap/relu-classifier.\n\nTable 1: Architecture of VGG-like CNN from Keras[4].\n\n| Layer (type) | Output Shape | Param \\# |\n| :---: | :---: | :---: |\n| conv2d_1 (Conv2D) | (None, 14, 14, 32) | 320 |\n| conv2d_2 (Conv2D) | (None, 12, 12, 32) | 9248 |\n| max_pooling2d_1 (MaxPooling2) | (None, 6, 6, 32) | 0 |\n| dropout_1 (Dropout) | (None, 6, 6, 32) | 0 |\n| conv2d_3 (Conv2D) | (None, 4, 4, 64) | 18496 |\n| conv2d_4 (Conv2D) | (None, 2, 2, 64) | 36928 |\n| max_pooling2d_2 (MaxPooling2) | (None, 1, 1, 64) | 0 |\n| dropout_2 (Dropout) | (None, 1, 1, 64) | 0 |\n| flatten_1 (Flatten) | (None, 64) | 0 |\n| dense_1 (Dense) | (None, 256) | 16640 |\n| dropout_3 (Dropout) | (None, 256) | 0 |\n| dense_2 (Dense) | (None, 10) | 2570 |\n\nTable 2 shows the architecture of the feed-forward neural network used in the experiments. The last layer, dense_6, used the softmax classifier and ReLU classifier in the experiments.\n\nTable 2: Architecture of FFNN.\n\n| Layer (type) | Output Shape | Param \\# |\n| :---: | :---: | :---: |\n| dense_3 (Dense) | (None, 512) | 131584 |\n| dropout_4 (Dropout) | (None, 512) | 0 |\n| dense_4 (Dense) | (None, 512) | 262656 |\n| dropout_5 (Dropout) | (None, 512) | 0 |\n| dense_5 (Dense) | (None, 512) | 262656 |\n| dropout_6 (Dropout) | (None, 512) | 0 |\n| dense_6 (Dense) | (None, 10) | 5130 |\n\nAll models used Adam[8] optimization algorithm for training, with the default learning rate $\\alpha=1 \\times 10^{-3}, \\beta_{1}=0.9, \\beta_{2}=0.999$, $\\epsilon=1 \\times 10^{-8}$, and no decay.\n\n### 3.1 MNIST\n\nWe implemented both CNN and FFNN defined in Tables 1 and 2 on a normalized, and PCA-reduced features, i.e. from $28 \\times 28$ (784) dimensions down to $16 \\times 16$ (256)
…
